…
as': '(0.9,0.98)', 'adam_eps': 1e-08, 'weight_decay': 0.0, 'use_old_adam': False, 'fp16_adam_stats': False, 'tpu': False, 'lr': [0.0003]}, 'lr_scheduler': {'_name': 'inverse_sqrt', 'warmup_updates': 4000, 'warmup_init_lr': 5e-05, 'lr': [0.0003]}, 'scoring': {'_name': 'bleu', 'pad': 1, 'eos': 2, 'unk': 3}, 'bpe': None, 'tokenizer': None, 'ema': {'_name': None, 'store_ema': False, 'ema_decay': 0.9999, 'ema_start_update': 0, 'ema_seed_model': None, 'ema_update_freq': 1, 'ema_fp32': False}}
2025-01-27 16:27:33 | INFO | fairseq_cli.train | GeometricProteinModel(
  (encoder): ESM2(
    (embed_tokens): Embedding(33, 480, padding_idx=1)
    (layers): ModuleList(
      (0): TransformerLayer(
        (self_attn): MultiheadAttention(
          (k_proj): Linear(in_features=480, out_features=480, bias=True)
          (v_proj): Linear(in_features=480, out_features=480, bias=True)
          (q_proj): Linear(in_features=480, out_features=480, bias=True)
          (out_proj): Linear(in_features=480, out_features=480, bias=True)
          (rot_emb): RotaryEmbedding()
        )
        (self_attn_layer_norm): LayerNorm((480,), eps=1e-05, elementwise_affine=True)
        (fc1): Linear(in_features=480, out_features=1920, bias=True)
        (fc2): Linear(in_features=1920, out_features=480, bias=True)
        (final_layer_norm): LayerNorm((480,), eps=1e-05, elementwise_affine=True)
      )
      (1): TransformerLayer(
        (self_attn): MultiheadAttention(
          (k_proj): Linear(in_features=480, out_features=480, bias=True)
          (v_proj): Linear(in_features=480, out_features=480, bias=True)
          (q_proj): Linear(in_features=480, out_features=480, bias=True)
          (out_proj): Linear(in_features=480, out_features=480, bias=True)
          (rot_emb): RotaryEmbedding()
        )
        (self_attn_layer_norm): LayerNorm((480,), eps=1e-05, elementwise_affine=True)
        (fc1): Linear(in_features=480, out_features=1920, bias=True)
        (fc2): Linear(in_features=1920, out_features=480, bias=True)
        (final_layer_norm): LayerNorm((480,), eps=1e-05, elementwise_affine=True)
      )
      (2): TransformerLayer(
        (self_attn): MultiheadAttention(
          (k_proj): Linear(in_features=480, out_features=480, bias=True)
          (v_proj): Linear(in_features=480, out_features=480, bias=True)
          (q_proj): Linear(in_features=480, out_features=480, bias=True)
          (out_proj): Linear(in_features=480, out_features=480, bias=True)
          (rot_emb): RotaryEmbedding()
        )
        (self_attn_layer_norm): LayerNorm((480,), eps=1e-05, elementwise_affine=True)
        (fc1): Linear(in_features=480, out_features=1920, bias=True)
        (fc2): Linear(in_features=1920, out_features=480, bias=True)
        (final_layer_norm): LayerNorm((480,), eps=1e-05, elementwise_affine=True)
      )
      (3): TransformerLayer(
        (self_attn): MultiheadAttention(
          (k_proj): Linear(in_features=480, out_features=480, bias=True)
          (v_proj): Linear(in_features=480, out_features=480, bias=True)
          (q_proj): Linear(in_features=480, out_features=480, bias=True)
          (out_proj): Linear(in_features=480, out_features=480, bias=True)
          (rot_emb): RotaryEmbedding()
        )
        (self_attn_layer_norm): LayerNorm((480,), eps=1e-05, elementwise_affine=True)
        (fc1): Linear(in_features=480, out_features=1920, bias=True)
        (fc2): Linear(in_features=1920, out_features=480, bias=True)
        (final_layer_norm): LayerNorm((480,), eps=1e-05, elementwise_affine=True)
      )
      (4): TransformerLayer(
        (self_attn): MultiheadAttention(
          (k_proj): Linear(in_features=480, out_features=480, bias=True)
          (v_proj): Linear(in_features=480, out_features=480, bias=True)
          (q_proj): Linear(in_features=480, out_features=480, bias=True)
          (out_proj): Linear(in_features=480, out_features=480, bias=True)
          (rot_emb): RotaryEmbedding()
        )
        (self_attn_layer_norm): LayerNorm((480,), eps=1e-05, elementwise_affine=True)
        (fc1): Linear(in_features=480, out_features=1920, bias=True)
        (fc2): Linear(in_features=1920, out_features=480, bias=True)
        (final_layer_norm): LayerNorm((480,), eps=1e-05, elementwise_affine=True)
      )
      (5): TransformerLayer(
        (self_attn): MultiheadAttention(
          (k_proj): Linear(in_features=480, out_features=480, bias=True)
          (v_proj): Linear(in_features=480, out_features=480, bias=True)
          (q_proj): Linear(in_features=480, out_features=480, bias=True)
          (out_proj): Linear(in_features=480, out_features=480, bias=True)
          (rot_emb): RotaryEmbedding()
        )
        (self_attn_layer_norm): LayerNorm((480,), eps=1e-05, elementwise_affine=True)
        (fc1): Linear(in_features=480, out_features=1920, bias=True)
        (fc2): Linear(in_features=1920, out_features=480, bias=True)
        (final_layer_norm): LayerNorm((480,), eps=1e-05, elementwise_affine=True)
      )
      (6): TransformerLayer(
        (self_attn): MultiheadAttention(
          (k_proj): Linear(in_features=480, out_features=480, bias=True)
          (v_proj): Linear(in_features=480, out_features=480, bias=True)
          (q_proj): Linear(in_features=480, out_features=480, bias=True)
          (out_proj): Linear(in_features=480, out_features=480, bias=True)
          (rot_emb): RotaryEmbedding()
        )
        (self_attn_layer_norm): LayerNorm((480,), eps=1e-05, elementwise_affine=True)
        (fc1): Linear(in_features=480, out_features=1920, bias=True)
        (fc2): Linear(in_features=1920, out_features=480, bias=True)
        (final_layer_norm): LayerNorm((480,), eps=1e-05, elementwise_affine=True)
      )
      (7): TransformerLayer(
        (self_attn): MultiheadAttention(
          (k_proj): Linear(in_features=480, out_features=480, bias=True)
          (v_proj): Linear(in_features=480, out_features=480, bias=True)
          (q_proj): Linear(in_features=480, out_features=480, bias=True)
          (out_proj): Linear(in_features=480, out_features=480, bias=True)
          (rot_emb): RotaryEmbedding()
        )
        (self_attn_layer_norm): LayerNorm((480,), eps=1e-05, elementwise_affine=True)
        (fc1): Linear(in_features=480, out_features=1920, bias=True)
        (fc2): Linear(in_features=1920, out_features=480, bias=True)
        (final_layer_norm): LayerNorm((480,), eps=1e-05, elementwise_affine=True)
      )
      (8): TransformerLayer(
        (self_attn): MultiheadAttention(
          (k_proj): Linear(in_features=480, out_features=480, bias=True)
          (v_proj): Linear(in_features=480, out_features=480, bias=True)
          (q_proj): Linear(in_features=480, out_features=480, bias=True)
          (out_proj): Linear(in_features=480, out_features=480, bias=True)
          (rot_emb): RotaryEmbedding()
        )
        (self_attn_layer_norm): LayerNorm((480,), eps=1e-05, elementwise_affine=True)
        (fc1): Linear(in_features=480, out_features=1920, bias=True)
        (fc2): Linear(in_features=1920, out_features=480, bias=True)
        (final_layer_norm): LayerNorm((480,), eps=1e-05, elementwise_affine=True)
      )
      (9): TransformerLayer(
        (self_attn): MultiheadAttention(
          (k_proj): Linear(in_features=480, out_features=480, bias=True)
          (v_proj): Linear(in_features=480, out_features=480, bias=True)
          (q_proj): Linear(in_features=480, out_features=480, bias=True)
          (out_proj): Linear(in_features=480, out_features=480, bias=True)
          (rot_emb): RotaryEmbedding()
        )
        (self_attn_layer_norm): LayerNorm((480,), eps=1e-05, elementwise_affine=True)
        (fc1): Linear(in_features=480, out_features=1920, bias=True)
        (fc2): Linear(in_features=1920, out_features=480, bias=True)
        (final_layer_norm): LayerNorm((480,), eps=1e-05, elementwise_affine=True)
      )
      (10): TransformerLayer(
        (self_attn): MultiheadAttention(
          (k_proj): Linear(in_features=480, out_features=480, bias=True)
          (v_proj): Linear(in_features=480, out_features=480, bias=True)
          (q_proj): Linear(in_features=480, out_features=480, bias=True)
          (out_proj): Linear(in_features=480, out_features=480, bias=True)
          (rot_emb): RotaryEmbedding()
        )
        (self_attn_layer_norm): LayerNorm((480,), eps=1e-05, elementwise_affine=True)
        (fc1): Linear(in_features=480, out_features=1920, bias=True)
        (fc2): Linear(in_features=1920, out_features=480, bias=True)
        (final_layer_norm): LayerNorm((480,), eps=1e-05, elementwise_affine=True)
      )
      (11): TransformerLayer(
        (self_attn): MultiheadAttention(
          (k_proj): Linear(in_features=480, out_features=480, bias=True)
          (v_proj): Linear(in_features=480, out_features=480, bias=True)
          (q_proj): Linear(in_features=480, out_features=480, bias=True)
          (out_proj): Linear(in_features=480, out_features=480, bias=True)
          (rot_emb): RotaryEmbedding()
        )
        (self_attn_layer_norm): LayerNorm((480,), eps=1e-05, elementwise_affine=True)
        (fc1): Linear(in_features=480, out_features=1920, bias=True)
        (fc2): Linear(in_features=1920, out_features=480, bias=True)
        (final_layer_norm): LayerNorm((480,), eps=1e-05, elementwise_affine=True)
      )
    )
    (contact_head): ContactPredictionHead(
      (regression): Linear(in_features=240, out_features=1, bias=True)
      (activation): Sigmoid()
    )
    (emb_layer_norm_after): LayerNorm((480,), eps=1e-05, elementwise_affine=True)
    (lm_head): RobertaLMHead(
      (dense): Linear(in_features=480, out_features=480, bias=True)
      (layer_norm): LayerNorm((480,), eps=1e-05, elementwise_affine=True)
    )
  )
  (decoder): EGNN(
    (gcl_0): E_GCL_RM_Node(
      (edge_mlp): Sequential(
        (0): Linear(in_features=961, out_features=480, bias=True)
        (1): SiLU()
        (2): Linear(in_features=480, out_features=480, bias=True)
        (3): SiLU()
      )
      (coord_mlp): Sequential(
        (0): Linear(in_features=480, out_features=480, bias=True)
        (1): SiLU()
        (2): Linear(in_features=480, out_features=1, bias=False)
        (3): Tanh()
      )
      (node_gate): Sequential(
        (0): Linear(in_features=480, out_features=480, bias=True)
        (1): ReLU()
        (2): Linear(in_features=480, out_features=480, bias=True)
        (3): Sigmoid()
      )
      (att_mlp): Sequential(
        (0): Linear(in_features=480, out_features=1, bias=True)
      )
    )
    (gcl_1): E_GCL_RM_Node(
      (edge_mlp): Sequential(
        (0): Linear(in_features=961, out_features=480, bias=True)
        (1): SiLU()
        (2): Linear(in_features=480, out_features=480, bias=True)
        (3): SiLU()
      )
      (coord_mlp): Sequential(
        (0): Linear(in_features=480, out_features=480, bias=True)
        (1): SiLU()
        (2): Linear(in_features=480, out_features=1, bias=False)
        (3): Tanh()
      )
      (node_gate): Sequential(
        (0): Linear(in_features=480, out_features=480, bias=True)
        (1): ReLU()
        (2): Linear(in_features=480, out_features=480, bias=True)
        (3): Sigmoid()
      )
      (att_mlp): Sequential(
        (0): Linear(in_features=480, out_features=1, bias=True)
      )
    )
    (gcl_2): E_GCL_RM_Node(
      (edge_mlp): Sequential(
        (0): Linear(in_features=961, out_features=480, bias=True)
        (1): SiLU()
        (2): Linear(in_features=480, out_features=480, bias=True)
        (3): SiLU()
      )
      (coord_mlp): Sequential(
        (0): Linear(in_features=480, out_features=480, bias=True)
        (1): SiLU()
        (2): Linear(in_features=480, out_features=1, bias=False)
        (3): Tanh()
      )
      (node_gate): Sequential(
        (0): Linear(in_features=480, out_features=480, bias=True)
        (1): ReLU()
        (2): Linear(in_features=480, out_features=480, bias=True)
        (3): Sigmoid()
      )
      (att_mlp): Sequential(
        (0): Linear(in_features=480, out_features=1, bias=True)
      )
    )
  )
  (ec1_embeddings): Embedding(9, 480)
  (ec2_embeddings): Embedding(75, 480)
  (ec3_embeddings): Embedding(256, 480)
  (ec4_embeddings): Embedding(3157, 480)
)
2025-01-27 16:27:33 | INFO | fairseq_cli.train | task: GeometricProteinDesignTask
2025-01-27 16:27:33 | INFO | fairseq_cli.train | model: GeometricProteinModel
2025-01-27 16:27:33 | INFO | fairseq_cli.train | criterion: GeometricProteinLoss
2025-01-27 16:27:33 | INFO | fairseq_cli.train | num. shared model params: 39,338,677 (num. trained: 39,338,677)
2025-01-27 16:27:33 | INFO | fairseq_cli.train | num. expert model params: 0 (num. trained: 0)
…
